CybersecurityEdu/app/src/main/ml/capstone_model.tflite (tflite, 9546 bytes, 5 tensors)

sequential_6/dense_12/BiasAdd/ReadVariableOp/resource f4 [16]
-0.0062529473 -0.00062579656 -0.0034307884 0.0014863688 -0.0061297286 0.0008158741 0.0012611619 -0.0027626608
-0.0056609376 0.0 -0.0061967033 0.00570382 -0.0007724608 -0.009114425 0.0033273408 0.0
00000000: 86e5 ccbb 7f0c 24ba 14d7 60bb 43d2 c23a
00000010: e4db c8bb 62e0 553a 924d a53a c20d 35bb
00000020: 637f b9bb 0000 0000 b70d cbbb 1ce7 ba3b
00000030: f77e 4aba ab54 15bc 840f 5a3b 0000 0000

sequential_6/dense_13/BiasAdd/ReadVariableOp/resource f4 [2]
0.0010557576 -0.0010557577
00000000: 5961 8a3a 5a61 8aba

sequential_6/embedding_6/embedding_lookup/15628 f4 [69, 16]
-0.026683984 -0.011035407 0.03817379 -0.017701957 0.038199164 0.006260948 -0.0005820587 0.034864977
-0.027072353 0.030250655 -0.044899084 -0.017815085 0.035569403 0.0026023125 0.02822217 0.028736733
0.034687027 -0.032682084 0.0019180679 -0.026338028 0.02634098 -0.018112183 0.029866735 -0.028726364
-0.00019231992 -0.011595253 -0.035833664 0.0443155 0.0457283 -0.0030244046 -0.016544763 0.014004646
-0.029343296 -0.021486258 -0.015607536 0.043030646 -0.017061986 0.013085093 -0.0070100203 0.03333422
0.037959937 0.043696526 0.012821507 -0.035069443 -0.04272571 -0.010387253 -0.034044195 0.0065610297
-0.025323853 0.04856318 0.008204038 -0.06621119 0.02832103 -0.0330389 0.04237038 0.061936352
-0.07060148 0.039183836 0.043068476 0.027993456 0.004052625 -0.05689275 0.058022957 -0.057530854
0.03693954 -0.020442225 0.028924076 0.0480802 0.025845464 -0.035151377 -0.019738019 0.027891438
0.01628029 0.004217645 -0.029711068 0.0073158005 -0.031394638 -0.03218483 -0.052431814 0.00842488
-0.01131168 -0.027361304 0.026876329 -0.07358396 0.06392505 0.045850005 0.047303848 0.058357775
-0.054983225 0.037265424 0.034071464 0.022715904 -0.067178026 -0.014472491 -0.04048158 -0.02765948
-0.007238806 0.01688668 0.0342977 -0.0050636707 -0.011010941 -0.018486047 0.0036261606 -0.05011413
-0.01770401 -0.045838006 -0.03749261 -0.06837993 0.063693166 0.04370403 -0.021490712 -0.002354789
-0.046327632 -0.007854305 -0.046580732 -0.025376312 -0.011504333 -0.012941367 0.022042114 -0.010295137
0.025293186 -0.011524737 -0.047921773 0.0020565302 0.006229656 -0.017312413 0.0027538254 0.04275957
-0.00047488546 0.004159787 -0.0004830619 -0.008750403 0.07085909 -0.0063173003 0.021577556 0.037176043
-0.035256352 -0.029013382 -0.0012862722 -0.024125136 0.017557232 -0.0040942756 0.021025792 -0.04827586
0.0497079 -0.0051577473 -0.009261002 0.016014231 0.013044435 -0.0022867373 0.03139436 0.04421873
-0.065032005 -0.003355795 0.0693449 0.01096163 0.0010523027 -0.04724715 0.038718436 -0.047817286
0.018041454 0.061275404 -0.0048822653 -0.0051718745 0.066165216 0.03588022 -0.01665587 0.023749772
-0.030078929 0.013739261 -0.0011959823 0.011180797 0.025072666 -0.06429238 0.021577004 -0.03846309
-0.0062757498 0.026611643 0.021472253 -2.4278881e-05 0.040016 -0.027601877 -0.028443813 0.058854856
-0.018056333 0.008546667 0.06142736 0.052546754 -0.05867573 0.020716198 0.035173785 0.018969106
0.039130524 -0.007089961 -0.04882118 -0.0084473025 -0.008812956 0.044231527 -0.02391845 -0.04540871
0.03280062 0.0303933 -0.06713786 0.015865602 -0.00974405 0.030381802 -0.009645408 0.032359045
-0.029715315 -0.04801513 0.035485674 0.015204794 -0.021513687 0.015715247 -0.019372134 -0.027492994
0.06652748 -0.039995857 -0.054801922 0.0044157803 0.0036520998 0.0053584795 -0.018833473 0.024085578
0.04300487 -0.02442823 -0.054488655 0.021145266 0.020360924 -0.02489208 0.00058451085 -0.053677168
0.047016934 -0.039707012 0.00019096257 -0.053794708 0.0267017 0.03441917 0.0012897009 0.01419058
-0.037276357 -0.022545042 -0.029440079 -0.029458923 -0.055590067 -0.017631982 -0.01909909 0.0015149857
0.0037123377 0.020823495 0.015571007 -0.03261288 -0.015881423 -0.029744634 0.02153281 0.03909086
00000000: 5f98 dabc dacd 34bc 1f5c 1c3d b203 91bc
00000010: ba76 1c3d a328 cd3b 4c95 18ba 94ce 0e3d
00000020: d7c6 ddbc 39d0 f73c 1ae8 37bd f1f0 91bc
00000030: 39b1 113d 8f8b 2a3b 2e32 e73c 4c69 eb3c
00000040: fc13 0e3d a6dd 05bd ae67 fb3a d9c2 d7bc
00000050: 0ac9 d73c 0060 94bc 15ab f43c 8d53 ebbc
00000060: 7ca9 49b9 04fa 3dbc 52c6 12bd 2b84 353d
00000070: 994d 3b3d 1735 46bb e288 87bc be73 653c
00000080: 5a61 f0bc f303 b0bc c0b6 7fbc e740 303d
00000090: 94c5 8bbc dc62 563c 50b4 e5bb 7789 083d
000000a0: e17b 1b3d 21fb 323d 4c11 523c faa4 0fbd
000000b0: 2701 2fbd 4c2f 2abc ed71 0bbd e8fd d63b
000000c0: f873 cfbc 2fea 463d 3b6a 063c bb99 87bd
000000d0: 8101 e83c cc53 07bd 908c 2d3d f9b0 7d3d
000000e0: 8297 90bd 3b7f 203d 9268 303d 8852 e53c
000000f0: e2cb 843b 5f08 69bd 7ba9 6d3d 79a5 6bbd
00000100: ea4d 173d 7476 a7bc 2ff2 ec3c beef 443d
00000110: deb9 d33c e4fa 0fbd a0b1 a1bc 967c e43c
00000120: 3e5e 853c 2c34 8a3b a064 f3bc 62b9 ef3b
00000130: aa97 00bd 3ed4 03bd bec2 56bd 8208 0a3c
00000140: a054 39bc d024 e0bc bf2b dc3c 30b3 96bd
00000150: 23eb 823d 37cd 3b3d aec1 413d 9008 6f3d
00000160: 1736 61bd a1a3 183d 858e 0b3d b416 ba3c
00000170: a294 89bd 071e 6dbc 03d0 25bd 2296 e2bc
00000180: 8233 edbb ef55 8a3c bf7b 0c3d 26ed a5bb
00000190: 3c67 34bc 0d70 97bc e1a4 6d3b 7944 4dbd
000001a0: 0008 91bc a2c0 3bbd da91 19bd c70a 8cbd
000001b0: 9071 823d ff02 333d 4a0d b0bc ce52 1abb
000001c0: 0bc2 3dbd 58af 00bc 70cb 3ebd fce1 cfbc
000001d0: ab7c 3cbc 0708 54bc aa91 b43c efac 28bc
000001e0: a833 cf3c 40d2 3cbc 9f49 44bd dac6 063b
000001f0: 2422 cc3b c3d2 8dbc 8679 343b a924 2f3d
00000200: 0cfa f8b9 d34e 883b 7843 fdb9 da5d 0fbc
00000210: 921e 913d 5b01 cfbb 6ac3 b03c e845 183d
00000220: f768 10bd 79ad edbc 2298 a8ba 14a2 c5bc
00000230: 2fd4 8f3c 4629 86bb 483e ac3c e8bc 45bd
00000240: 839a 4b3d 5202 a9bb 75bb 17bc 4730 833c
00000250: 53b8 553c 16dd 15bb 5f97 003d b31e 353d
00000260: 802f 85bd e6ec 5bbb b304 8e3d 6998 333c
00000270: 6bed 893a 3a86 41bd 3997 1e3d 0fdc 43bd
00000280: accb 933c ebfb 7a3d 69fb 9fbb d478 a9bb
00000290: a181 873d 23f7 123d e471 88bc e28e c23c
000002a0: 1668 f6bc a31a 613c 82c2 9cba a92f 373c
000002b0: 3165 cd3c b9ab 83bd 42c2 b03c 798b 1dbd
000002c0: cea4 cdbb a900 da3c 94e6 af3c 80aa cbb7
000002d0: d1e7 233d 551d e2bc 0003 e9bc ca11 713d
000002e0: e0ea 93bc 5207 0c3c 419b 7b3d 443b 573d
000002f0: f655 70bd 04b5 a93c 6312 103d 1965 9b3c
00000300: 5447 203d e752 e8bb b8f8 47bd 8e66 0abc
00000310: 3764 10bc 1e2c 353d a0f0 c3bc 7cfe 39bd
00000320: f159 063d 5ffb f83c 937f 89bd 94f8 813c
00000330: 82a5 1fbc 42e3 f83c c607 1ebc eb8a 043d
00000340: 886d f3bc 83ab 44bd 6d59 113d 871d 793c
00000350: 793d b0bc 43bd 803c 4fb2 9ebc fd38 e1bc
00000360: 8f3f 883d b2d2 23bd fb77 60bd 40b2 903b
00000370: 1158 6f3b 2f96 af3b a848 9abc 1e4f c53c
00000380: e025 303d b61d c8bc 7f2f 5fbd d638 ad3c
00000390: f4cb a63c 7aea cbbc dc39 193a 97dc 5bbd
000003a0: d494 403d d2a3 22bd 203d 4839 d757 5cbd
000003b0: 86bd da3c 1efb 0c3d 2e0b a93a 9b7f 683c
000003c0: 18af 18bd 61b0 b8bc 522c f1bc d753 f1bc
000003d0: 69b2 63bd f270 90bc b275 9cbc 7c92 c63a
000003e0: b14a 733b 0996 aa3c 891d 7f3c 1595 05bd
000003f0: c219 82bc 05ab f3bc 9365 b03c bd1d 203d

sequential_6/dense_12/MatMul f4 [16, 16]
-0.03676725 0.20570888 -0.032333758 0.32734495 0.26545867 -0.3708835 0.0013137666 -0.09497491
0.3460817 0.29856297 0.21097319 -0.31812897 0.26529565 -0.0866836 -0.04693451 -0.03198984
-0.42624727 -0.14030881 -0.004269138 0.05451333 -0.42649695 0.29970008 0.43808863 0.25733104
-0.41154096 0.40346536 -0.11741481 0.020129872 0.24455899 0.08945544 -0.42062908 -0.2604566
-0.251648 -0.08872347 -0.15955065 0.21140625 -0.4376771 -0.035231415 -0.44392708 0.41533965
-0.091348864 0.3705023 -0.334833 0.40756384 0.40735984 -0.30977562 -0.41561556 -0.07761364
0.10092097 -0.007968867 -0.10855394 -0.0794384 0.17784765 0.41314325 -0.06353719 0.02835441
0.19215491 0.43678653 0.2520062 0.15189901 0.06968526 -0.46242946 0.32409582 0.23040122
-0.43460035 -0.11696332 0.22678335 -0.3593727 0.0029441565 0.30419534 0.15137939 0.37872308
-0.09815623 -0.27142793 0.26676568 0.06679028 0.030348878 -0.3885033 -0.29065257 0.1514485
-0.38344315 0.24506156 0.12468371 -0.3660282 -0.29251885 0.33366737 0.29356188 0.2929303
0.16357675 0.3636976 0.09286848 -0.21488819 0.24884728 -0.25875863 -0.08995494 0.42789355
-0.22976296 0.3601079 0.3476828 -0.16687413 -0.18393362 0.38046476 0.11328168 -0.14736964
0.074037924 0.022523515 0.24097143 0.08777507 -0.15762724 0.17998084 0.3402457 0.1171107
0.13351227 -0.09381919 -0.19241841 -0.40778655 0.41617316 -0.31621477 -0.11936934 0.3688355
-0.25441867 0.13553815 0.13838607 0.15512298 -0.36352867 -0.29754648 0.40997759 -0.2183436
0.1162395 -0.15640976 -0.048617918 0.3436977 -0.18278378 -0.20643249 0.33755338 0.15122747
0.19695409 -0.10711147 -0.2163011 -0.41917282 -0.08452273 -0.36164054 0.3212751 0.35716814
-0.11770618 0.17926714 -0.16392472 -0.4150765 -0.07904965 0.18154696 -0.27923083 0.13725582
-0.318638 -0.11190492 0.36146858 0.02024883 -0.054005682 -0.20238107 0.13430926 -0.2764915
-0.4112897 -0.18408002 0.09361977 0.17378388 0.024663549 -0.015752086 0.40716842 -0.089742914
-0.17175658 0.35736617 -0.061853494 0.19354098 0.40048638 0.01807403 -0.12311214 -0.09284274
0.30201328 -0.19134831 -0.33071697 0.087365136 0.30256158 0.05008729 -0.15504457 0.12842424
0.14720267 0.13688695 -0.32906222 -0.2544754 0.35757956 -0.06787472 -0.30713788 0.37458527
-0.33701912 -0.39578423 0.12815966 0.1732007 0.060288213 -0.17558236 0.21390872 -0.39289656
0.35796088 -0.22834955 -0.06032876 0.27100754 0.3676719 -0.06856982 0.11237846 0.36692402
-0.27929798 0.279662 0.0033021462 0.13837485 -0.08215315 0.21128047 0.31858307 0.3762378
-0.43070307 -0.25637636 -0.20485027 0.4173013 0.36107117 -0.28739643 0.09299396 -0.3066601
0.13407524 -0.39090237 -0.28740576 -0.4231542 0.0007346513 0.36791158 -0.4250107 0.38939986
-0.41233513 -0.114342675 0.03148335 -0.103937656 0.13209398 -0.15738544 -0.23143515 0.020188402
0.28927097 -0.06389251 -0.42408434 -0.23299856 0.048888475 -0.33163673 -0.08524868 0.2765557
-0.09669173 -0.39925823 0.21484289 -0.26288283 -0.16876215 -0.053620517 -0.3889826 -0.0072716773
00000000: 4299 16bd 59a5 523e 6770 04bd c299 a73e
00000010: 33ea 873e 71e4 bdbe b132 ac3a 3582 c2bd
00000020: 9f31 b13e 3fdd 983e 5b09 583e cde1 a2be
00000030: d5d4 873e 2c87 b1bd 673e 40bd c707 03bd
00000040: 153d dabe 1dad 0fbe 20e4 8bbb 5f49 5f3d
00000050: cf5d dabe 4a72 993e 274d e03e e5c0 833e
00000060: 7fb5 d2be 0393 ce3e 2d77 f0bd 67e7 a43c
00000070: ac6d 7a3e 6a34 b73d b25c d7be 915a 85be
00000080: 02d8 80be a7b4 b5bd 3f61 23be e17a 583e
00000090: 3617 e0be d14e 10bd 694a e3be 66a7 d43e
000000a0: 1d15 bbbd 7ab2 bd3e 3b6f abbe 35ac d03e
000000b0: 7891 d03e e99a 9ebe 90cb d4be e6f3 9ebd
000000c0: a7af ce3d da8f 02bc 8751 debd 9ab0 a2bd
000000d0: b21d 363e 8387 d33e c91f 82bd 8247 e83c
000000e0: 42c4 443e 7ca2 df3e f506 813e 6a8b 1b3e
000000f0: 25b7 8e3d 8ec3 ecbe e3ef a53e 4cee 6b3e
00000100: f083 debe 778a efbd e539 683e b3ff b7be
00000110: c0f2 403b 7ebf 9b3e 3303 1b3e fee7 c13e
00000120: 2206 c9bd 9af8 8abe 8395 883e 58c9 883d
00000130: 369e f83c e8e9 c6be 6ad0 94be 5115 1b3e
00000140: a952 c4be 6bf1 7a3e 2c5a ff3d 0c68 bbbe
00000150: 08c5 95be 73d6 aa3e be4d 963e f6fa 953e
00000160: aa80 273e 9236 ba3e d431 be3d a60b 5cbe
00000170: d2d1 7e3e 037c 84be 4c3a b8bd dd14 db3e
00000180: fb46 6bbe 1060 b83e 7b03 b23e 0de1 2abe
00000190: 1859 3cbe 47cc c23e 3a00 e83d 11e8 16be
000001a0: 32a1 973d 3c83 b83c 37c1 763e 6ac3 b33d
000001b0: 0969 21be e64c 383e af34 ae3e bcd7 ef3d
000001c0: 71b7 083e 4724 c0bd 5509 45be 66c9 d0be
000001d0: a614 d53e e7e6 a1be ea77 f4bd 02d8 bc3e
000001e0: 2a43 82be 83ca 0a3e 14b5 0d3e 8fd8 1e3e
000001f0: 6e20 babe 0358 98be 95e8 d13e 7795 5fbe
00000200: fa0e ee3d e129 20be 9523 47bd 25f9 af3e
00000210: ac2b 3bbe 0a63 53be ccd3 ac3e 60db 1a3e
00000220: 55ae 493e 425d dbbd 097e 5dbe d29d d6be
00000230: 411a adbd f328 b9be 2b7e a43e bede b63e
00000240: f00f f1bd ce91 373e e2db 27be e884 d4be
00000250: c8e4 a1bd 72e7 393e 58f7 8ebe ca8c 0c3e
00000260: 8524 a3be 682e e5bd 6912 b93e e0e0 a53c
00000270: 1035 5dbd fc3c 4fbe 5e88 093e 4b90 8dbe
00000280: 9094 d2be 797f 3cbe b9bb bf3d 67f4 313e
00000290: 360b ca3c 850a 81bc 6178 d03e 22cb b7bd
000002a0: f5e0 2fbe b3f8 b63e 175a 7dbd 9b2f 463e
000002b0: 8d0c cd3e fd0f 943c 3822 fcbd 5624 bebd
000002c0: 7ca1 9a3e d0f0 43be bc53 a9be 7eec b23d
000002d0: 5ae9 9a3e 5528 4d3d 01c4 1ebe a581 033e
000002e0: 4cbc 163e 182c 0c3e d87a a8be 9a4a 82be
000002f0: ab14 b73e e701 8bbd 2d41 9dbe a4c9 bf3e
00000300: c58d acbe 3ba4 cabe 493c 033e 865b 313e
00000310: c6f0 763d ddcb 33be e30a 5b3e bd29 c9be
00000320: a646 b73e 77d4 69be 4a1b 77bd 80c1 8a3e
00000330: 7e3f bc3e 556e 8cbd ae26 e63d 77dd bb3e
00000340: 2500 8fbe dc2f 8f3e d268 583b 23b2 0d3e
00000350: e93f a8bd e859 583e 521d a33e 3ea2 c03e
00000360: 1d85 dcbe c343 83be 45c4 51be 84a8 d53e
00000370: 52de b83e a025 93be 9e73 be3d 8d02 9dbe
00000380: 054b 093e 5b24 c8be d926 93be aba7 d8be
00000390: 9d95 403a e85e bc3e 019b d9be 6b5f c73e
000003a0: 971d d3be 7e2c eabd aff4 003d 44dd d4bd
000003b0: a543 073e a629 21be 56fd 6cbe 2662 a53c
000003c0: 531b 943e 14da 82bd 9521 d9be 2d97 6ebe
000003d0: 483f 483d 4acc a9be dc96 aebd b598 8d3e
000003e0: 5006 c6bd 936b ccbe c6ff 5b3e 9498 86be
000003f0: fccf 2cbe 30a1 5bbd ba28 c7be 4047 eebb

sequential_6/dense_13/MatMul f4 [2, 16]
0.43624392 -0.13354954 -0.40204573 0.39392745 -0.12771547 -0.29725218 -0.18455538 0.30522442
0.17852771 -0.34892428 -0.37186903 0.15765038 -0.17109324 0.10905999 -0.06669964 -0.22214082
0.42582914 -0.27655023 -0.33610544 0.17544325 -0.53717464 -0.1247924 -0.43653214 -0.22518982
0.34684372 -0.25662035 -0.5045974 0.13346788 0.45094082 0.08054149 0.36763048 0.14727038
00000000: 5d5b df3e 36c1 08be f0d8 cdbe dcb0 c93e
00000010: d8c7 02be 7031 98be 16fc 3cbe 6046 9c3e
00000020: f8cf 363e 34a6 b2be 9e65 bebe 1a6f 213e
00000030: 1133 2fbe d85a df3d d299 88bd e278 63be
00000040: 4706 da3e fe97 8dbe 0316 acbe 65a7 333e
00000050: 4784 09bf 2893 ffbd 2481 dfbe 2998 66be
00000060: 8095 b13e be63 83be 4c2d 01bf ceab 083e
00000070: b7e1 e63e f0f2 a43d 103a bc3e 0cce 163e
